.drawio-chrome/chrome-data/Default/optimization_guide_prediction_model_downloads/f08fede0-467e-4232-a6ea-2f0e6519b73b/model.tflite (tflite, 67216 bytes, 5 tensors)

dnn/hiddenlayer_1/bias/part_0 f4 [64]
000000 4a 87 18 3c 57 00 5b bd f4 16 3b bd 78 af f7 3d
       0.009309599 -0.05346712 -0.045676187 0.12094015
000010 a8 f2 a0 3d d6 da cf 3d 1c 01 2a bd 22 d5 17 3c
       0.07858783 0.101491615 -0.041504964 0.009267123
000020 a7 43 94 bd 69 d9 72 bd 69 7b fa 3b 76 ab dc bc
       -0.07239466 -0.05928937 0.007644106 -0.026937228
000030 e9 17 14 bd 7e 2b 71 bd d3 50 83 3d 04 2a 3a bd
       -0.036155615 -0.058879368 0.064119 -0.045450225
000040 44 be 11 bc 65 b1 8b 3d 7d c6 04 3c 37 04 ab 3c
       -0.0088954605 0.06820945 0.008103964 0.020876033
000050 0d cd 7a 3c b8 88 ee 3d 69 6b 28 bd f0 b0 2e 3d
       0.015307677 0.11647171 -0.04111806 0.04264921
000060 3d ee a8 3c ab 4a ae bd 54 ea 94 3c 0e e8 cb 3d
       0.020621413 -0.085103355 0.018178143 0.0995637
000070 10 a0 68 3d de f1 09 bc 3f 2e ff ba 05 62 52 bc
       0.056793272 -0.008419482 -0.0019468738 -0.0128407525
000080 e9 38 08 bd b3 3c db 3a f5 e8 91 3d d2 13 17 3e
       -0.0332574 0.0016726464 0.07124511 0.14753655
000090 fd b1 04 bb 67 13 a9 3b 02 9d 37 bb da 1a 01 bc
       -0.002024769 0.0051597836 -0.0028017168 -0.007879937
0000a0 8f f2 27 3d b1 93 2e 3c 2a 68 a3 3a 5b 14 43 3d
       0.041002806 0.01065533 0.0012466956 0.047626834
0000b0 13 e6 1c bd 04 3e 05 bd 9e 4f 75 3d 34 40 77 bb
       -0.038305353 -0.032529846 0.059890382 -0.0037727477
0000c0 c0 60 9f bc f4 4c d8 3d 0b a7 59 3c 01 f4 da bc
       -0.019455314 0.10561553 0.013284455 -0.026727678
0000d0 69 b5 fa bb 49 d8 61 3c 65 ec 05 bd fd f6 37 3c
       -0.0076510203 0.013784477 -0.032696147 0.01122832
0000e0 da 24 48 3d c5 dd fb 3b 7b 31 44 3d c3 61 b1 3d
       0.04886327 0.007686349 0.04789875 0.08661225
0000f0 07 f2 c0 bc c6 42 9c 3d 3b d4 18 bd 95 31 22 bc
       -0.023552908 0.076299235 -0.037311774 -0.009899517

dnn/hiddenlayer_0/bias/part_0 f4 [128]
000000 ca 9c 81 3d 54 50 f0 3d 73 fd 24 3c 4e d0 04 3c
       0.06328733 0.117340714 0.010070193 0.008106304
000010 85 5b 20 3e 66 93 15 3c f7 ee 14 bc cf a7 4a 3d
       0.15659912 0.009129381 -0.009090177 0.04947644
000020 71 4e 83 bd 3b 2f bc bc ec 4f 1d 3d 75 fe a0 3c
       -0.06411446 -0.02297174 0.038406298 0.019652585
000030 de 74 03 bd 87 d6 1c bc d0 f0 9e bc 3e e6 47 bd
       -0.032093875 -0.009572632 -0.019401938 -0.04880356
000040 5e 33 0a 3d f0 fc b4 bd 6a d9 aa bd 6f 93 8b bc
       0.033740394 -0.088373065 -0.0834225 -0.017038075
000050 50 c6 01 3d 42 ee 86 bd 1a f6 ae 3b 54 d1 22 3d
       0.031683266 -0.06588413 0.005339396 0.039750412
000060 85 75 4d bc f7 f5 6f bd 95 4d cd bc 9a a6 63 bc
       -0.012540226 -0.05858418 -0.025061408 -0.013894701
000070 75 05 72 bd 20 a6 57 3d 10 37 13 bc 81 a7 3f 3d
       -0.059087235 0.052648664 -0.008985296 0.046790604
000080 f0 eb 93 3d c5 15 a2 3c b4 34 1d 3c a8 d9 91 bd
       0.07222736 0.019785771 0.009595085 -0.07121593
000090 b6 ef 59 bd d3 97 ca bd c4 64 1a bd 2b 86 44 3d
       -0.05320712 -0.098922394 -0.037693754 0.047979515
0000a0 78 e6 db 3c 4e ed 9d 3d 50 a0 fc bc e6 0e 2c 3c
       0.026843295 0.07711278 -0.030838162 0.010501599
0000b0 b4 e3 ff bc 10 50 bc 3c 68 72 0f bc 92 f7 8b bc
       -0.031236507 0.022987396 -0.008755304 -0.017085824
0000c0 04 23 85 bd e9 5c 8c bd 1a cf 92 bd a2 62 d4 bc
       -0.06500819 -0.06853659 -0.07168408 -0.025925938
0000d0 da b3 67 3c ef aa ca bb 33 fd 57 bc 1f c0 05 bd
       0.014142001 -0.0061849277 -0.013182926 -0.032653924
0000e0 52 cd 29 3c e5 82 bb 3d 89 6a c6 3d 4f d8 cc bc
       0.010363894 0.091558255 0.09688289 -0.025005488
0000f0 1d 40 93 ba 1a 5b ef 3c a2 28 16 bd 4e c9 e9 3c
       -0.0011234317 0.029218245 -0.036659844 0.028538372
000100 55 31 ed 3d 1f dc 55 bc 08 9a 45 3c 5f 53 1f 3c
       0.11581675 -0.013052969 0.01206065 0.009724467
000110 9b 09 b4 bc 4d 96 a9 bb 41 d5 c2 bb ac 45 24 3a
       -0.021977236 -0.005175388 -0.005945832 0.00062664854
000120 e0 12 9c bd 72 41 0d bd e3 f6 18 bc 10 4a 59 bc
       -0.076207876 -0.03448624 -0.009336206 -0.013262287
000130 9d ee 31 3d 55 1e d7 3c 98 36 b8 bd 7e 5e df 3c
       0.04344045 0.02625958 -0.08994788 0.027266737
000140 25 51 03 be 2c c1 61 3c da c9 90 3d 37 9b 21 bd
       -0.12823923 0.013778966 0.0706975 -0.039454665
000150 c8 4e 2d bd 24 23 76 bd fa 45 95 3c 35 9f 70 3c
       -0.04231146 -0.060092106 0.018221844 0.014686395
000160 75 2f 9e bc 87 a3 d4 bd d7 88 65 3c f5 ad 10 3e
       -0.019309739 -0.10382753 0.014009676 0.1412886
000170 e0 cb 04 3d 02 e9 99 bd d7 b1 a5 3d 07 ec 83 3d
       0.032420993 -0.07515146 0.08090561 0.06441503
000180 b6 7e 9c bd cc d2 9b bb a1 32 8a ba 71 ea 31 3b
       -0.07641356 -0.0047553536 -0.0010543653 0.0027147795
000190 17 41 74 bd 71 7f 40 3d 7d 95 81 bd 0c 5e a9 3d
       -0.059632387 0.046996538 -0.06327341 0.08269891
0001a0 72 60 6b bd 62 27 47 3c 94 88 46 3d e5 79 7e 3b
       -0.057465024 0.012155386 0.048470095 0.003882998
0001b0 23 6f 99 3d f3 8e b1 bc a1 9c 1a bc 2d d8 8c 3d
       0.07491901 -0.021674609 -0.009436757 0.0687717
0001c0 1d f5 0f bd a6 b5 28 bb 29 ce a4 3c 21 2c 95 bd
       -0.035145868 -0.0025743037 0.020117836 -0.072838075
0001d0 1c 4a db 3d b0 7e d6 bd 30 0e 3b bc da 45 69 3d
       0.107074946 -0.104733825 -0.011416957 0.05695138
0001e0 72 52 d3 3c 71 df 71 bd 31 38 bf bd 05 6a c8 3c
       0.025796149 -0.05905098 -0.093368895 0.024464617
0001f0 74 da 0b bd 01 fe fc 3b 54 8e 69 3d c1 96 93 3d
       -0.03414388 0.0077207093 0.0570205 0.072064884

dnn/hiddenlayer_0/MatMul f4 [128, 12]
000000 d4 47 00 3d 98 25 40 3e f1 40 f9 bc cd b1 05 3e
       0.0313185 0.18764341 -0.030426474 0.13056107
000010 8a 57 2b be 8a 0b 57 bc bc db 58 3e 4b 22 73 bd
       -0.16732612 -0.01312531 0.21177572 -0.059358876
000020 82 d2 bd bb 80 75 cc bd 14 7e d0 bd b1 fa 84 be
       -0.0057929168 -0.09983349 -0.101802975 -0.25972512
000030 c0 40 88 bd c1 ec 3a 3e 48 62 48 3e 24 9c 0f 3e
       -0.06652975 0.18254377 0.19568741 0.14024407
000040 6d c0 a4 bd ef 65 2e be d5 ea 4e be cc 93 25 3e
       -0.08044515 -0.17031072 -0.20206769 0.16169661
000050 a8 26 58 3d ed 2e 34 be c0 48 f6 bd 06 32 8e be
       0.05277124 -0.17596026 -0.12025595 -0.2777254
000060 c4 f7 d6 3d 89 e7 db bd 7e 3f 73 3d c7 10 b5 bc
       0.10496476 -0.10737521 0.059386723 -0.022102727
000070 f6 78 90 bb 80 a2 49 be 82 a6 ca bc 14 c4 6b 3b
       -0.004408951 -0.19690895 -0.0247376 0.0035975026
000080 bd 29 29 be 63 da 0f 3e ab e4 00 bd cc 9c f1 3d
       -0.16519828 0.14048152 -0.031468075 0.11797485
000090 7e 65 1f be 42 f9 b6 3c 6e 24 6b 3d 8d e7 e1 bd
       -0.1556606 0.022335652 0.05740779 -0.11030493
0000a0 e9 c8 3d bd 23 85 76 bc 54 e9 3a be 85 08 2a be
       -0.04633418 -0.015046391 -0.1825307 -0.16604812
0000b0 88 96 cc bd 9c 99 2b bd 22 b7 1e be 5e f1 ef 3d
       -0.09989649 -0.04189454 -0.15499547 0.11715959
0000c0 de 24 78 be d4 8f 55 3d ae 87 61 3d 71 d1 23 be
       -0.24232814 0.05213912 0.055061035 -0.15997864
0000d0 0c 53 73 3d b0 36 19 be 87 a4 7e 3e 83 b0 77 bd
       0.05940537 -0.14962268 0.2486745 -0.06047107
0000e0 a9 4d 6b bd e5 41 47 bd b4 c5 ae 3d 47 1d 82 be
       -0.05744711 -0.048646826 0.08533803 -0.25412962
0000f0 3f 1e 11 be 8b 51 60 be 79 f5 2b be ff 3a 00 be
       -0.14171694 -0.21906106 -0.16792859 -0.12522505
000100 c9 0c 88 be f9 07 f3 3d d3 05 8a 3c d2 26 e9 bd
       -0.26572254 0.11866755 0.01684848 -0.113843575
000110 27 9b 04 3e 3b 75 0b 3e 9e 21 13 bc 0d 63 3f be
       0.12949811 0.13618939 -0.008980183 -0.18690129
000120 0f 68 87 be 35 5a 2e be 87 d9 62 3e 2b 25 ce bd
       -0.26446578 -0.17026599 0.22153293 -0.10065683
000130 90 95 62 be e3 7d 25 bd 1e 31 ed 3d c5 ab d5 bd
       -0.22127366 -0.040403258 0.11581634 -0.10433153
000140 71 a1 ad bd 2c 97 7b 3d 3d c1 ef bc ae 4b 43 be
       -0.08478058 0.061423466 -0.029266948 -0.19071838
000150 2d bf c7 bc d8 5c 14 3e b7 86 29 be 3b dd 3b be
       -0.024383152 0.14488542 -0.16555296 -0.18346111
000160 9d 13 00 3d f0 34 35 be 16 1d 48 bd 09 20 84 3c
       0.031268705 -0.17695975 -0.048855864 0.016128557
000170 c4 1b a4 3d a9 ff c1 bc be 8a 41 3d 2b 1e ae bd
       0.080131084 -0.023681479 0.047251455 -0.08501848
000180 be a6 0f be 74 56 de 3d 60 da fc 3d 12 2f 35 3e
       -0.14028451 0.108563334 0.12346339 0.17693737
000190 c0 a6 25 3e c7 a6 e8 bd 31 fa cc bd 39 50 fe 3d
       0.16176891 -0.11359935 -0.10008658 0.12417645
0001a0 55 7a 96 3c 66 5a 4c 3d 67 3c 47 3c f9 44 33 3e
       0.01836888 0.0498909 0.012160397 0.1750678
0001b0 5d 78 c9 bc fe fc 3a bd 1a c7 8b 3d c4 59 20 3e
       -0.024593526 -0.04565143 0.06825085 0.15659243
0001c0 27 25 56 bd 3c b4 07 3d dd 47 78 bc b3 bc 83 bc
       -0.052281525 0.03313087 -0.015153852 -0.01608119
0001d0 99 34 08 bd 34 4b 8a bd 54 53 d0 bd b8 5b 0c be
       -0.033253286 -0.06752625 -0.101721436 -0.13706863
0001e0 ee ec 72 be d5 b4 25 be 1d b6 26 3e 7a 80 72 3d
       -0.23723194 -0.16182263 0.16280408 0.059204556
0001f0 01 e5 3a be 16 a1 8c 3c ba 68 79 3e ed 38 bc 3d
       -0.1825142 0.017166656 0.24356356 0.09190545
000200 de 7c a2 bc 7d 7e 33 be d0 51 b0 bb 0f ea 94 3c
       -0.019834932 -0.1752872 -0.0053808466 0.018178014
000210 67 f7 3c 3e d2 b3 06 be 78 9f 21 be a0 48 39 bd
       0.18453752 -0.13154534 -0.15783489 -0.045235276
000220 71 3e 24 be b5 8f 0d bd 15 2e 64 bc 56 e9 09 be
       -0.16039445 -0.034560878 -0.013927002 -0.13467917
000230 ca a2 c2 bc cb 2f 92 3d 54 dd 53 be 41 07 5a bd
       -0.023759264 0.07138022 -0.20689899 -0.053229574
000240 e6 21 e4 3d d8 0b e6 3d 56 b6 d4 3d 87 4c 1e 3e
       0.11139278 0.11232728 0.1038634 0.1545888
000250 c7 6f c5 bd 9a 78 15 be ed 09 05 3e 37 da 2d 3e
       -0.096404605 -0.14596787 0.12992068 0.16977774
000260 a7 ae 04 3e 87 3c 78 bd dc 8f 04 be 3f e4 10 be
       0.1295725 -0.0606046 -0.12945503 -0.14149569
000270 d6 49 11 3e f0 1d 0a 3c cb 12 b7 3d 3a be 01 be
       0.14188322 0.008429989 0.08939131 -0.12670222
000280 1f ae 58 be 37 f6 69 be 86 11 49 bd 27 dc 20 3e
       -0.21160172 -0.2284783 -0.049088977 0.15708981
000290 f5 ba eb 3d 5b 9e 12 be 11 10 d4 bd 1d 05 01 3e
       0.115102686 -0.1431822 -0.10354627 0.12599607
0002a0 86 9e 92 3d 94 9d af 3d 84 ef b2 3d 83 8e a1 bd
       0.07159142 0.085749775 0.0873709 -0.0788851
0002b0 ce 6e 4a bd 26 ba 48 3e 59 14 43 be 13 be 93 bd
       -0.049422078 0.1960226 -0.19050731 -0.07213988
0002c0 81 01 0a bd 19 ce 26 bd 61 83 0e be 5c 09 19 be
       -0.03369284 -0.040723894 -0.13917305 -0.14944977
0002d0 38 60 6d be 4e 7e d8 3d b9 5b 1e be 03 61 cf 3d
       -0.23181236 0.10570966 -0.15464677 0.101259254
0002e0 6d 67 12 be 74 35 88 3d 97 bd d5 bd 2b 5c 24 3d
       -0.14297266 0.066508204 -0.10436552 0.04012696
0002f0 b7 04 1c 3c ce d7 e6 bd 20 88 17 3c 4d 9a 6d 3e
       0.0095226085 -0.1127163 0.009248763 0.23203392
000300 0b 6b de bd d3 bd 1c be 51 cd a8 bd 33 a4 2e be
       -0.108602606 -0.15306787 -0.08242286 -0.17054825
000310 a6 ac 56 be 1c 91 36 3e c4 6a e0 bd 10 ad 49 be
       -0.20964298 0.17828792 -0.10957864 -0.19694924
000320 ba b3 79 bd 99 f5 00 be ba a1 94 3d 69 6b f5 3c
       -0.060962416 -0.12593688 0.072574094 0.029958444
000330 67 a4 f0 3d 51 63 a6 3d a4 a8 37 3e fe 78 15 3e
       0.11750107 0.08124412 0.17935425 0.14596936
000340 29 90 f5 3d 0c 9f 05 3e 5d 95 aa be e9 96 8b 3d
       0.11990387 0.13048953 -0.3331708 0.06815893
000350 44 8e 28 3e 83 41 01 3d 61 59 1f be c6 44 45 bd
       0.1646052 0.031556617 -0.15561439 -0.04816129
000360 82 cb 40 be b8 96 30 3e 20 b2 2b 3e 0e c2 f3 bd
       -0.18827632 0.17244995 0.16767168 -0.11902247
000370 a0 2c dd bd d3 fd 5b be a7 ae b2 bd 26 7f 45 3e
       -0.10799527 -0.21483545 -0.087247185 0.19286785
000380 18 6f 0b 3d e3 d4 14 3d 31 d9 51 bd 69 0c 1e be
       0.034041494 0.036335837 -0.05123252 -0.15434422
000390 94 3a d6 3d 08 fd 7d be 2c fc e4 3c 82 4d 2f 3e
       0.10460392 -0.24803555 0.027952276 0.1711941
0003a0 8c f5 25 be c8 d0 e0 3d 33 33 2c be 9e 5b f1 3d
       -0.1620695 0.10977322 -0.16816406 0.11785053
0003b0 91 e5 0a 3e 50 aa f3 3d e4 29 54 bd 72 5c 9e 3d
       0.13564135 0.11897719 -0.051797763 0.07732476
0003c0 5e 3a e0 3c 8a 1a d0 bc 5a 4b cc bd 73 53 45 bd
       0.027371582 -0.02540328 -0.0997531 -0.048175287
0003d0 b9 40 2b bd 32 a5 b3 3c 7d e1 41 bd 85 ef 7c 3c
       -0.04180977 0.021929357 -0.047334183 0.015437965
0003e0 06 6c 55 be 75 96 66 3e 71 f1 d8 3d 51 d9 8f bb
       -0.20841989 0.22518332 0.10592926 -0.00438992
0003f0 9b 9b 83 3d 80 e6 f5 bc a0 9e 86 be d2 7e c6 3d
       0.06426164 -0.030017138 -0.26292896 0.09692158

dnn/hiddenlayer_1/MatMul f4 [64, 128]
000000 a7 8d 1d 3d 0a 36 91 3d 3b 15 bd 3d 53 bf 7c 3d
       0.03846517 0.07090385 0.09232565 0.0617059
000010 29 39 b3 3d ba ea 2c bd b4 c7 05 be a9 3f d7 bd
       0.08751137 -0.04221604 -0.13064462 -0.10510189
000020 f0 52 6c bd b3 80 e5 3d fa 52 0c bd 00 81 0d bd
       -0.057696283 0.11206188 -0.03425882 -0.034546852
000030 a5 65 fe bd 62 86 f3 3d 3c 9b 2e 3e d4 9c 3a 3d
       -0.12421731 0.11890866 0.17051405 0.04555972
000040 2a 12 84 3c fc dc 11 3e 6a d0 db bc 4e 1b dc bd
       0.016121943 0.14244455 -0.026832778 -0.107473955
000050 93 eb ea 3c a2 81 10 3c 41 67 72 3d 13 9c 36 3e
       0.028676784 0.008819969 0.0591805 0.17832975
000060 a2 59 98 bd 77 ef e7 3a 79 6e 04 3e eb 06 1e be
       -0.07438971 0.0017695267 0.12932767 -0.15432326
000070 69 7d 1e be de 98 1e 3e f4 df d3 bd 34 b5 93 3d
       -0.15477528 0.15488002 -0.1034545 0.07212296
000080 25 36 2f be f4 07 30 3d 2b 88 1a be 99 ce 98 bd
       -0.17110498 0.042976335 -0.15091006 -0.074612804
000090 77 a6 04 be f1 f9 2e 3e 67 62 d0 3d ed c3 6a 3c
       -0.12954126 0.17087533 0.10175019 0.014328939
0000a0 3d f5 30 3e 4e d6 ce 3d d6 ce f3 3d 49 3a f1 3d
       0.17281051 0.10099469 0.11904685 0.11778695
0000b0 95 b0 37 be 0b 4d 03 bc 24 37 a2 3d af 31 91 3d
       -0.17938454 -0.008013974 0.079206735 0.070895545
0000c0 6e 5d 0b be b3 ce 1c 3e 38 8a 02 3e a2 e6 da bd
       -0.1360986 0.15313224 0.12748039 -0.10688521
0000d0 30 93 fa 3d c5 78 3c 3d 5c 33 65 3c d4 3a 02 be
       0.12235105 0.046013612 0.013989296 -0.12717754
0000e0 0c fe 31 3e db a6 cc bd 36 62 1e 3d f9 fc d1 3c
       0.17382067 -0.09992763 0.03866788 0.025633322
0000f0 1d dc 85 3d a9 68 1a 3d ff 5a 06 3e 3e cf 18 be
       0.06536124 0.037697468 0.1312065 -0.14922807
000100 87 b0 8d 3d 22 3c 06 be 17 04 93 bd 12 a7 73 bd
       0.069184355 -0.13108876 -0.071785145 -0.059485503
000110 77 7d 29 3e 3a d7 ac 3d 70 36 38 bd 80 a0 b7 bd
       0.16551767 0.08439489 -0.04497379 -0.0896616
000120 e9 1b fe bd 02 ad ee bc c0 74 16 bd 34 eb 37 bd
       -0.12407667 -0.02913523 -0.036732435 -0.04490204
000130 48 5c 82 3d 9b e7 4c 3c fd 3c 65 bd 28 d4 28 be
       0.063652575 0.012506391 -0.055966366 -0.16487181
000140 7c 48 a9 3d 4e 3a fd 3d 6f 50 3b 3b d8 bb e4 bd
       0.082657784 0.12364636 0.0028581878 -0.11168641
000150 eb c8 21 be c4 fc f8 bd a4 52 30 be 20 1a 20 be
       -0.157993 -0.12157586 -0.17219025 -0.15634966
000160 44 d6 59 bd 11 b2 1b bd f9 fa ad bd 0b 00 11 bd
       -0.053182855 -0.038011614 -0.08495135 -0.03540043
000170 fc f7 58 3c a9 59 ab bd e6 84 fb 3d fe 79 09 3e
       0.013242718 -0.08366711 0.12281208 0.13425443
000180 75 af 3a 3e 8a e1 f1 bd 9a 5a 3e 3a c2 75 1d be
       0.18230994 -0.11810596 0.00072614255 -0.15376952
000190 36 fe 22 be ba 31 07 be 78 27 0a be dd 96 10 be
       -0.15917286 -0.13202563 -0.13491619 -0.1412005
0001a0 66 06 0b 3d 46 b0 36 bd e1 1a b7 3c 2a a1 cd bd
       0.03394165 -0.0446017 0.022351684 -0.10040505
0001b0 4f 62 be 3d a6 20 16 3e b7 fb 7a 3d 01 c0 4a 3d
       0.092960946 0.14660892 0.06127521 0.049499515
0001c0 8e 00 ef 3d da 26 4d be a2 32 34 bd f9 43 30 be
       0.11670028 -0.20034352 -0.0439936 -0.1721343
0001d0 4b f6 2a be d0 3f 0d be 85 9f 7c 3a 1f 40 1a bd
       -0.16695516 -0.13793874 0.00096368074 -0.037658807
0001e0 b4 74 fc 3d 6d 65 5c 3c b8 fb fc 3c 97 1b 0d 3e
       0.12326947 0.013451916 0.030881748 0.13780056
0001f0 27 4a 70 3d b8 e5 7f bd a8 3a 39 3e c8 ef 05 be
       0.058664467 -0.062474936 0.18088782 -0.1307975
000200 b6 26 00 3d 42 b1 cf bc 03 45 97 3d 80 36 c4 3d
       0.031286918 -0.025353078 0.0738621 0.095807076
000210 fc df 43 3e 27 9c c5 bd d8 52 1d be 51 46 07 be
       0.19128412 -0.09648924 -0.15363634 -0.13210417
000220 b4 d5 e2 bc c9 ff cd 3d 25 cb fa 3d 05 44 0b be
       -0.027689792 0.10058553 0.12245778 -0.13600166
000230 c4 eb cb bd 20 2a 90 bd bb 69 d6 bd 24 fc 16 3e
       -0.09957078 -0.07039285 -0.10469385 0.14744622
000240 d7 f4 14 3e af 9b a7 bd 9e 26 af 3d 87 08 51 3e
       0.14546524 -0.08183991 0.085522875 0.20413409
000250 00 ec 11 bd fe 7b fd bd 1d e8 d1 3d 8d 58 df 3c
       -0.035625458 -0.12377165 0.1024935 0.027263904
000260 ce 7c a4 bd 0d 68 2c 3d 85 b6 4e 3d 70 c8 6d 3d
       -0.08031617 0.042091418 0.050467033 0.05805248
000270 18 0f 17 3e 04 bc d1 bc 66 04 2d 3d fe e6 e1 3d
       0.14751852 -0.025602348 0.042240523 0.110303864
000280 5c 8c 54 bd 81 27 2a 3e a5 87 9e 3d f7 9c 8e bd
       -0.05189167 0.16616632 0.07740716 -0.069635324
000290 63 26 1a 3e d0 99 d7 bd 92 cf 40 3c 34 35 9b 3d
       0.15053706 -0.10527384 0.011768239 0.07578507
0002a0 14 46 7c bd 92 09 31 be 96 f1 51 bc 23 98 09 bd
       -0.06159027 -0.17288807 -0.012813946 -0.033592355
0002b0 03 57 03 3e 7f 1b c5 3d 8c ff 2f be 3a 40 e1 bd
       0.12826161 0.09624385 -0.17187327 -0.10998578
0002c0 6c 5c 46 bc 34 0e 95 3c 30 9d 5c bd 7e 58 c3 bd
       -0.012106996 0.01819525 -0.053860843 -0.09538363
0002d0 74 21 18 be 85 24 99 bd 9b 60 25 3e c8 19 5e bd
       -0.14856511 -0.07477669 0.16150133 -0.054223806
0002e0 0c 8f 47 3d 64 5e 32 3e 24 95 2f 3b 51 65 8d 3d
       0.048720405 0.1741882 0.0026791776 0.0690409
0002f0 df fe 26 3d 4f 48 2f be ee 0c 53 3e 3e 95 48 bd
       0.040770408 -0.17117427 0.20610401 -0.048970453
000300 0f cf f4 bd f8 34 bc bc b2 4b 38 be fa 9f 2f be
       -0.11953556 -0.022974476 -0.17997625 -0.1715087
000310 36 c2 23 3e 98 54 fe bd f5 12 6f 3b 4b 19 06 3d
       0.15992054 -0.12418479 0.0036479805 0.032738965
000320 8d b6 07 3d 0b c8 bd 3d bf 9d 11 be 92 67 ae 3d
       0.03313308 0.09266671 -0.14220332 0.08515848
000330 e4 3b b1 bd 61 62 83 3d 46 ed c7 3d d1 ae 50 3d
       -0.08654001 0.06415249 0.09762053 0.050947968
000340 bd 74 5f 3c 55 62 0e be a8 6c f1 3d af 69 b7 bd
       0.013638672 -0.13904698 0.11788303 -0.089557044
000350 ab 43 18 3d d1 06 10 3e 33 51 36 bd 5b 0f 62 3d
       0.03717391 0.140651 -0.04451103 0.055190425
000360 3a bd c0 3c 7c 73 20 be cf f0 9f bd db 50 05 3d
       0.02352773 -0.15669054 -0.078096025 0.032547813
000370 20 33 0a be b4 26 b0 3d 59 5b 85 bb d9 78 b4 3c
       -0.13496065 0.08601132 -0.0040697274 0.02203028
000380 b8 5a e3 3d 32 f7 e2 3d 7e 6e 21 be 80 0a e7 bd
       0.111012876 0.11082305 -0.15764806 -0.112812996
000390 05 d7 c0 3d f6 f3 da 3c 92 bb fe bd 70 40 fb bd
       0.09416012 0.026727658 -0.1243812 -0.1226815
0003a0 e5 25 81 bb 16 0c 67 bd de 38 22 be 86 16 03 be
       -0.003941285 -0.05640801 -0.15842006 -0.12801561
0003b0 00 2a 2a be 29 27 7b bc 1b 49 13 be c3 ef ec bd
       -0.16617584 -0.015329161 -0.14383356 -0.115691684
0003c0 48 82 36 3e dd 3f 14 be eb a1 39 ba d6 8e 08 bb
       0.17823136 -0.14477487 -0.00070813176 -0.002083709
0003d0 14 dc fc 3d 01 90 75 3d 97 8f bf ba fa c0 2a 3e
       0.12346664 0.059951786 -0.0014614937 0.16675177
0003e0 77 74 85 bd 15 ee 65 bd e8 b3 f0 3d d5 0e 07 3e
       -0.065163545 -0.056135256 0.117530644 0.13189252
0003f0 ec e3 2c 3e 1d c6 14 3d fe a5 1a bd de e0 1a 3d
       0.1688382 0.036321748 -0.03775596 0.037812106

dnn/logits/MatMul f4 [1, 64]
000000 1c bf e6 bd b3 33 e5 3d b8 f0 e2 bd 14 91 cf 3e
       -0.1126692 0.111915015 -0.1108107 0.40540373
000010 78 db 9f 3e e8 8a 93 3e de 0f 96 be d9 09 62 3d
       0.3122213 0.28816915 -0.2930898 0.055185173
000020 bb c3 87 be 52 1c 30 be ce 6f 4a 3e dd 1d c8 bd
       -0.26516518 -0.17198303 0.19769213 -0.09771321
000030 54 cb a6 be 2b 22 fd bd 91 62 4d 3e ad a7 c0 be
       -0.32577002 -0.12360033 0.20057131 -0.37627926
000040 96 22 4b be e4 75 93 3e ad 9c c8 3d 49 ba 02 be
       -0.19837412 0.2880088 0.097955085 -0.12766375
000050 a3 ed 4b be 7e aa 85 3e 18 53 7f be 62 fe 8d 3e
       -0.1991487 0.26106638 -0.24934042 0.2773314
000060 d8 21 b1 3e 2e 76 8d be 73 02 e4 3d 87 e0 80 3e
       0.34596133 -0.27629226 0.1113328 0.251713
000070 4d 13 a5 3d 86 f6 9d bc a0 e0 bd be df bd cc be
       0.08060322 -0.01928259 -0.37085438 -0.3998861
000080 3b 3e 1c be 50 ac 85 3d 6f 17 a3 3e a9 96 d5 3e
       -0.15258114 0.065270066 0.31853816 0.41716507
000090 3b 1b 96 bd 5b 43 fa bd 97 19 88 bd 4e 48 92 3e
       -0.073294125 -0.12219878 -0.06645506 0.2857079
0000a0 fa a4 3a 3e b8 8e 22 be 49 c2 d2 3d 4e cd 83 3e
       0.18226996 -0.15874755 0.10290963 0.25742573
0000b0 85 17 7f be 87 68 1d be 8c a2 7d 3e 24 7f 66 be
       -0.24911316 -0.15371905 0.24769038 -0.22509438
0000c0 98 bc 14 be 5b d4 c2 3e 4b cf 44 be 2b b7 4d be
       -0.14525068 0.3805264 -0.19219701 -0.20089404
0000d0 89 36 7b be ba d2 9e be 77 70 86 be b6 1a 43 bd
       -0.24532522 -0.31020147 -0.2625768 -0.047632895
0000e0 ff 96 80 3e 61 90 38 3d 93 94 89 3e 15 b9 36 3e
       0.251152 0.045059565 0.26871166 0.1784404
0000f0 12 9f 9e bd df cc ce 3e 3f c5 93 be c2 b1 f5 bc
       -0.07745184 0.4039068 -0.28861424 -0.029991988
